…
------------- Round 0-------------
> Pre-training selection: choosing 4 clients.
SELECTED INDICES:  [ 4 18  6 13]
DEBUG: About to index self.clients. Length of self.clients is: 20
> Sending global model to 4 clients for local training.

Evaluating global model before training...
Averaged Train Loss: 2.6103
Averaged Test Accurancy: 0.4761
Averaged Test AUC: 0.8310
Std Test Accurancy: 0.1600
Std Test AUC: 0.0642
--- Training 4 clients ---
DEBUG: self.model: SHOT(
  (cross_entropy): CrossEntropyLabelSmooth(
    (logsoftmax): LogSoftmax(dim=1)
  )
  (feature_extractor): CNN(
    (conv_block1): Sequential(
      (0): Conv1d(9, 64, kernel_size=(5,), stride=(1,), padding=(2,), bias=False)
      (1): BatchNorm1d(64, eps=1e-05, momentum=0.1, affine=True, track_running_stats=True)
      (2): ReLU()
      (3): MaxPool1d(kernel_size=2, stride=2, padding=1, dilation=1, ceil_mode=False)
      (4): Dropout(p=0.5, inplace=False)
    )
    (conv_block2): Sequential(
      (0): Conv1d(64, 128, kernel_size=(8,), stride=(1,), padding=(4,), bias=False)
      (1): BatchNorm1d(128, eps=1e-05, momentum=0.1, affine=True, track_running_stats=True)
      (2): ReLU()
      (3): MaxPool1d(kernel_size=2, stride=2, padding=1, dilation=1, ceil_mode=False)
    )
    (conv_block3): Sequential(
      (0): Conv1d(128, 128, kernel_size=(8,), stride=(1,), padding=(4,), bias=False)
      (1): BatchNorm1d(128, eps=1e-05, momentum=0.1, affine=True, track_running_stats=True)
      (2): ReLU()
      (3): MaxPool1d(kernel_size=2, stride=2, padding=1, dilation=1, ceil_mode=False)
    )
    (aap): AdaptiveAvgPool1d(output_size=1)
  )
  (classifier): classifier(
    (logits): Linear(in_features=128, out_features=6, bias=True)
  )
  (network): Sequential(
    (0): CNN(
      (conv_block1): Sequential(
        (0): Conv1d(9, 64, kernel_size=(5,), stride=(1,), padding=(2,), bias=False)
        (1): BatchNorm1d(64, eps=1e-05, momentum=0.1, affine=True, track_running_stats=True)
        (2): ReLU()
        (3): MaxPool1d(kernel_size=2, stride=2, padding=1, dilation=1, ceil_mode=False)
        (4): Dropout(p=0.5, inplace=False)
      )
      (conv_block2): Sequential(
        (0): Conv1d(64, 128, kernel_size=(8,), stride=(1,), padding=(4,), bias=False)
        (1): BatchNorm1d(128, eps=1e-05, momentum=0.1, affine=True, track_running_stats=True)
        (2): ReLU()
        (3): MaxPool1d(kernel_size=2, stride=2, padding=1, dilation=1, ceil_mode=False)
      )
      (conv_block3): Sequential(
        (0): Conv1d(128, 128, kernel_size=(8,), stride=(1,), padding=(4,), bias=False)
        (1): BatchNorm1d(128, eps=1e-05, momentum=0.1, affine=True, track_running_stats=True)
        (2): ReLU()
        (3): MaxPool1d(kernel_size=2, stride=2, padding=1, dilation=1, ceil_mode=False)
      )
      (aap): AdaptiveAvgPool1d(output_size=1)
    )
    (1): classifier(
      (logits): Linear(in_features=128, out_features=6, bias=True)
    )
  )
)
Traceback (most recent call last):
  File "C:\Program Files\Python37\lib\runpy.py", line 193, in _run_module_as_main
    "__main__", mod_spec)
  File "C:\Program Files\Python37\lib\runpy.py", line 85, in _run_code
    exec(code, run_globals)
  File "C:\Users\owner\Downloads\Benchmark_Stage_backup2\Benchmark_Stage\system_shot\main.py", line 235, in <module>
…
